…
Epoch 99/100
50/50 ━━━━━━━━━━━━━━━━━━━━ 20s 396ms/step - accuracy: 0.8893 - loss: 0.5377 - val_accuracy: 0.9844 - val_loss: 0.0375
Epoch 100/100
50/50 ━━━━━━━━━━━━━━━━━━━━ 20s 403ms/step - accuracy: 0.8802 - loss: 0.5579 - val_accuracy: 0.9062 - val_loss: 0.3789
model.summary()
Model: "sequential"
┏━━━━━━━━━━━━━━━━━━━━━━━━━━━━━━━━━━━━━━┳━━━━━━━━━━━━━━━━━━━━━━━━━━━━━┳━━━━━━━━━━━━━━━━━┓
┃ Layer (type)                         ┃ Output Shape                ┃         Param # ┃
┡━━━━━━━━━━━━━━━━━━━━━━━━━━━━━━━━━━━━━━╇━━━━━━━━━━━━━━━━━━━━━━━━━━━━━╇━━━━━━━━━━━━━━━━━┩
│ conv2d (Conv2D)                      │ (None, 98, 98, 32)          │             896 │
├──────────────────────────────────────┼─────────────────────────────┼─────────────────┤
│ max_pooling2d (MaxPooling2D)         │ (None, 49, 49, 32)          │               0 │
├──────────────────────────────────────┼─────────────────────────────┼─────────────────┤
│ conv2d_1 (Conv2D)                    │ (None, 47, 47, 32)          │           9,248 │
├──────────────────────────────────────┼─────────────────────────────┼─────────────────┤
│ max_pooling2d_1 (MaxPooling2D)       │ (None, 23, 23, 32)          │               0 │
├──────────────────────────────────────┼─────────────────────────────┼─────────────────┤
│ conv2d_2 (Conv2D)                    │ (None, 21, 21, 64)          │          18,496 │
├──────────────────────────────────────┼─────────────────────────────┼─────────────────┤
│ max_pooling2d_2 (MaxPooling2D)       │ (None, 10, 10, 64)          │               0 │
├──────────────────────────────────────┼─────────────────────────────┼─────────────────┤
│ flatten (Flatten)                    │ (None, 6400)                │               0 │
├──────────────────────────────────────┼─────────────────────────────┼─────────────────┤
│ dense (Dense)                        │ (None, 1024)                │       6,554,624 │
├──────────────────────────────────────┼─────────────────────────────┼─────────────────┤
│ dropout (Dropout)                    │ (None, 1024)                │               0 │
├──────────────────────────────────────┼─────────────────────────────┼─────────────────┤
│ dense_1 (Dense)                      │ (None, 131)                 │         134,275 │
└──────────────────────────────────────┴─────────────────────────────┴─────────────────┘
 Total params: 13,435,080 (51.25 MB)
 Trainable params: 6,717,539 (25.63 MB)
 Non-trainable params: 0 (0.00 B)
 Optimizer params: 6,717,541 (25.63 MB)
model.save_weights("staiml_project(3).weights.h5")
print(hist.history.keys())
plt.plot(hist.history["loss"],label = "Train Loss")
plt.plot(hist.history["val_loss"],label = "Validaton Loss")
…
